src/main/resources/model.onnx (onnx, 38271 bytes, 20 tensors)

sequential_1/dense_4_1/Cast/ReadVariableOp:0 f4 [16, 11]
000000 e8 e8 7d be da 0f 10 3f 44 13 22 3e b7 8e d8 bf
       -0.24795878 0.5627419 0.15827662 -1.6918553
000010 80 40 f0 3e 79 04 86 bf ce f6 17 3e 85 42 18 c0
       0.4692421 -1.0470115 0.14840242 -2.37906
000020 19 04 0c 3f 05 70 10 3d 74 2d ce 3e e1 db 0b bf
       0.5469375 0.03526308 0.40269053 -0.54632384
000030 60 7a f2 3e 8e af 1e be 10 df 12 3f af 19 0c 3f
       0.4735899 -0.15496656 0.57371616 0.5472669
000040 dc 92 05 3f 6c 3f a0 bc 6a 42 07 c0 80 2e 8b bf
       0.52177215 -0.019561492 -2.1134286 -1.0873566
000050 ee 02 99 3e e3 ef 9b be 88 47 55 bf 8b 7a ee 3e
       0.29885048 -0.30456457 -0.83312273 0.46577868
000060 cd 02 a1 3e bb c4 b1 bf 08 22 9c bf d9 25 21 bf
       0.3144745 -1.3888162 -1.2197886 -0.62948376
000070 f0 67 f8 3e 38 16 13 3f 93 52 a2 bd 1d ab a2 be
       0.48516798 0.5745578 -0.07925906 -0.31771174
000080 70 01 32 3e 39 42 1f bc d2 2c af 3e 90 56 74 3e
       0.17383361 -0.009720379 0.34213883 0.23861146
000090 a9 cd 20 3f 41 e6 cd bf 7c 61 1a 3e 3e 97 5e 3e
       0.6281381 -1.6085893 0.1507625 0.21737382
0000a0 71 90 1b 3f 9c bf a1 bf 12 37 9c 3e 3b 6c 54 bf
       0.60767275 -1.26366 0.30510765 -0.82977647
0000b0 55 77 90 3e d7 69 04 3f 39 ea 82 bf e4 d2 2d bf
       0.28216043 0.51724 -1.0227729 -0.6789992
0000c0 7c 4a 74 bf 76 27 8b bf 74 83 24 3f e8 f6 32 3f
       -0.95426154 -1.0871418 0.6426308 0.69908
0000d0 a6 be 0f 3f cf d8 0e bf d7 c0 8a 3e ac 6c 10 3f
       0.5615028 -0.55799574 0.2710025 0.5641582
0000e0 f5 a0 cd 3e c0 91 0e bd 63 b0 a4 bf bf d5 9b bf
       0.40161863 -0.034806967 -1.2866329 -1.2174605
0000f0 87 a7 1b 3f bf dd 29 3f 6d df b7 bf bd 93 35 3f
       0.608025 0.6635398 -1.4365059 0.70928556
000100 e9 79 20 be f4 0b ff 3e ae 1e 5a bf 9c ab 01 3f
       -0.15671505 0.49813807 -0.85203063 0.5065248
000110 30 56 37 3e 0f fc 9a bf 0a 5f 7e bf 77 48 2d 3f
       0.17903972 -1.2108172 -0.9936377 0.676887
000120 47 0f 88 3e ff b0 a2 bf f4 a9 38 3f 3a b4 30 3f
       0.26574156 -1.2710265 0.7213433 0.69025004
000130 3c be ef 3e 4f 34 14 3f 4d d1 03 be 0b a2 b6 3e
       0.46824825 0.57892317 -0.1287281 0.35670504
000140 08 98 f2 3e 18 7e 22 3f c3 2e aa bf 63 00 0e bf
       0.47381616 0.63473654 -1.329552 -0.5546934
000150 38 1e af bd 97 41 9d bf 65 dd f1 be 10 3b 8b 3e
       -0.08550686 -1.2285641 -0.47239223 0.271935
000160 e4 fd cf bf fa a5 c7 3e de 48 b9 3e 53 57 8e bf
       -1.6249356 0.38993818 0.36188406 -1.1120399
000170 a0 57 bd 3e 80 80 1f 3f 55 30 e4 3e ad 95 cd bf
       0.36980915 0.6230545 0.44568124 -1.6061302
000180 c3 7c 64 3e 7a bb 18 3f 37 74 a8 3e 2c e7 0e 3e
       0.22313218 0.59661067 0.32901165 0.13955373
000190 e5 cc f2 3d 50 d0 6b 3f 75 f2 61 bf 0a 06 51 3f
       0.11855487 0.92114735 -0.88260585 0.8164984
0001a0 5e bb 07 bf 6c 9e 03 bc da d1 48 3f 5c 58 4e bf
       -0.53020275 -0.008033376 0.7844521 -0.80603576
0001b0 c7 fa eb be 90 3a 97 be 79 27 17 3f f2 aa 03 bb
       -0.46089765 -0.29536867 0.59044605 -0.0020090905
0001c0 5a ed 83 be 86 01 47 bf bf 0a 40 bf 54 28 48 3f
       -0.25767022 -0.777367 -0.750164 0.78186536
0001d0 d7 b7 06 bd 79 1d 78 3f 42 2a be be 97 db 4c 3f
       -0.032890167 0.9691997 -0.37141615 0.8002257
0001e0 af 8c f0 be 34 94 06 3f 4a d9 8b be 1c dd 00 bf
       -0.46982333 0.5256989 -0.27314216 -0.50337386
0001f0 4a 1e 38 bf 0e 27 49 3f e2 00 32 bf ab 99 b2 3e
       -0.7192122 0.7857522 -0.695326 0.34882864
000200 44 0b 23 bf 6d 82 e9 be 98 7a 6e 3f fb 67 a8 3e
       -0.63689065 -0.4560732 0.93155813 0.3289183
000210 c9 ff 03 3f 7f cd f3 3e 19 2a 29 3e f2 dc a3 bf
       0.5156217 0.4761772 0.16519965 -1.2801802
000220 3b 5c 14 bf 3a a9 25 3f 6c cb 10 3f 1f 7c af bf
       -0.5795323 0.64711344 0.565604 -1.3709754
000230 19 cd 14 bf 30 74 be 3e 44 f8 34 be cc 2d 50 bf
       -0.58125454 0.3719802 -0.17672831 -0.8131988
000240 2e c8 86 3b ee 51 75 bf 53 07 49 3f cb 61 6b bf
       0.0041132187 -0.9582814 0.785268 -0.91946095
000250 80 5e ff 3e e8 9c 82 3e c0 9b e2 3e d7 84 34 3f
       0.49876785 0.25510335 0.44259453 0.705152
000260 ae b7 5b be c1 df b3 be e6 77 19 3e c8 a0 04 3f
       -0.21456787 -0.35131648 0.14987144 0.5180783
000270 03 09 0c 3f f5 e6 e9 3e ab f4 d7 bf 52 b8 2a bf
       0.5470125 0.4568402 -1.6871542 -0.666875
000280 e9 86 56 be 32 a0 93 bf b1 80 f2 3e 2e f2 13 3e
       -0.20949902 -1.1533263 0.4736381 0.14447853
000290 29 6e d9 3e 78 9a b6 3e 69 e9 28 bf 13 d5 0d 3f
       0.42466858 0.35664725 -0.65981156 0.5540325
0002a0 e4 25 15 3f fb 68 2f bf cb 5f e5 3e c2 14 17 bf
       0.5826094 -0.6851956 0.44799647 -0.5901605
0002b0 f5 8c 7b bf 43 3b 6e bf ae 37 13 3f de 18 af be
       -0.9826196 -0.93059176 0.57506835 -0.3419866

sequential_1/dense_4_1/BiasAdd/ReadVariableOp:0 f4 [11]
000000 0f b9 07 3f bb a2 b7 3e 59 11 fa 3e ad c8 07 bf
       0.5301675 0.3586634 0.4884136 -0.5304058
000010 dc e8 a2 be b0 0e c8 be dc e3 19 3f b2 c5 4a bf
       -0.31818283 -0.39073706 0.6011331 -0.7920791
000020 2e cd 28 bf 18 68 c4 3e 45 c3 ea 3e
       -0.6593808 0.38360667 0.45852104

sequential_1/dense_3_1/Cast/ReadVariableOp:0 f4 [32, 16]
000000 4d bf 3d bf e1 07 26 c0 79 57 c1 3f d3 4b 80 bf
       -0.74120027 -2.594231 1.510482 -1.002314
000010 d1 0a 9d bf d6 72 3e bf 73 c5 83 be aa 50 c2 3e
       -1.2268926 -0.74393976 -0.2573658 0.37952167
000020 10 63 a7 3e 00 48 0e 40 1d 48 0d 3f fe c2 40 bf
       0.32692766 2.2231445 0.5518816 -0.75297534
000030 34 50 77 3e 49 6f 10 bf 9f d1 85 3e 10 8f fa 3e
       0.24151689 -0.5641981 0.2613649 0.48937273
000040 7a fc 01 bf 69 12 66 bf a5 54 a3 bf df 06 bc bf
       -0.50775874 -0.8987184 -1.2760206 -1.4689597
000050 22 55 af bf 20 ea 0a 3f c5 e4 f3 3f 33 41 32 c0
       -1.3697855 0.54263496 1.905419 -2.7852294
000060 1a 43 65 3f 9f 89 b1 bf 87 d3 8e 3f 02 3c ac be
       0.89555514 -1.3870124 1.1158303 -0.33639532
000070 32 7f 5d bf f0 ae a9 3e 9f ea 86 be 6e f4 97 3e
       -0.8652221 0.3314128 -0.26350877 0.29678673
000080 80 db 12 3f 36 d9 24 c0 37 6f 65 3f 53 2a 70 be
       0.5736618 -2.5757575 0.89622825 -0.23453645
000090 47 aa 9b 3f a8 c9 fe be 3e 13 bd 3e 64 59 1c c0
       1.216134 -0.49763227 0.36928743 -2.442956
0000a0 98 8d 86 bf 07 49 6e be a8 04 65 be 47 db 87 bf
       -1.0511961 -0.23270045 -0.22365057 -1.0613793
0000b0 a8 ef a7 bf 60 d9 4f 3f 11 06 8e be a0 6b 3f c0
       -1.3120012 0.8119106 -0.27739003 -2.990944
0000c0 79 03 39 bf 4c 2f a0 bf 62 6f e5 3f e5 a8 24 3f
       -0.72270924 -1.2514434 1.7924616 0.6432021
0000d0 ea 98 23 3f 20 45 1b 3f e7 b0 85 bf 8a 6d d7 bf
       0.63905203 0.6065235 -1.0444611 -1.6830304
0000e0 6e 87 3c 3f d5 61 e2 3c 2e 83 1a bf d9 02 83 3e
       0.7364415 0.02763454 -0.60356414 0.2558811
0000f0 a9 50 f4 be 88 24 41 3f 83 5f cf bf dc 81 49 c0
       -0.4771779 0.7544637 -1.6201023 -3.148551
000100 df ff 7c 3f 8d 86 8f 3e d4 11 03 40 dd 97 4b bf
       0.9882793 0.28032342 2.0479631 -0.795286
000110 40 cf 97 be 6a e9 15 be 70 b9 7e bd 27 cc c0 3e
       -0.29650307 -0.14639822 -0.062188566 0.37655756
000120 84 eb a1 3f 0f 4c 83 3f 75 b7 cc bf 79 86 8c bc
       1.2649999 1.0257586 -1.5993487 -0.017153965
000130 0a 48 27 bf 00 0a 3f c0 17 1b 91 3e f4 5f 87 bf
       -0.653443 -2.9849854 0.2834098 -1.0576158
000140 87 1e 1d 3f e2 f0 0e 3f 9b 7b 29 c0 66 44 a9 bf
       0.61374706 0.5583631 -2.6481693 -1.3223999
000150 94 fd 1f be 2e fb 1f 3e 92 65 af bf 89 06 56 3f
       -0.15624076 0.15623161 -1.3702872 0.8360372
000160 7a 9d c7 be 98 95 3e 3e d8 80 a1 be cc 6a b4 bc
       -0.38987333 0.18611753 -0.31543612 -0.022023581
000170 e6 5c a4 3f 0d 5b 08 c0 64 d4 86 bf f8 62 80 bf
       1.284085 -2.1305573 -1.0533566 -1.0030203
000180 0d e8 e6 be 2a d4 51 be 7d 2c c8 bf 6d c1 e3 be
       -0.45098916 -0.2049109 -1.5638577 -0.4448351
000190 df e5 dc bd 2f 91 9b bf 3a 49 11 c0 75 1f 12 40
       -0.10786032 -1.2153682 -2.2700944 2.28317
0001a0 23 33 e7 be 68 d9 b8 be 3d dc 8b bf e3 d2 1e 3f
       -0.45156202 -0.36103368 -1.0926586 0.6204054
0001b0 a3 4b d5 bf 94 68 6a 3e 28 b9 1c bf d7 85 92 3d
       -1.6663707 0.22891456 -0.61220026 0.07154434
0001c0 a7 a8 65 be 63 aa 52 3e 28 a9 6f 3f ae ee 45 3e
       -0.22427617 0.2057281 0.93617487 0.1932933
0001d0 40 5f ce bf 94 eb 1b bf fb 1e 41 3f 99 e0 25 3e
       -1.6122818 -0.6090634 0.754379 0.16198958
0001e0 fb e8 20 bf c6 16 19 bf 2b eb 4b bf d4 f6 98 be
       -0.628555 -0.59800375 -0.7965571 -0.29875815
0001f0 da fa fb 3e fa 67 8d bf 9c d4 10 40 fc 0f 04 40
       0.49214822 -1.1047356 2.2629766 2.0634756
000200 b9 06 24 bf 16 db dc bd 74 40 c8 bf 9f 46 72 bf
       -0.6407276 -0.10783975 -1.564467 -0.9463901
000210 74 11 16 bf 02 33 c4 3f 71 2d ba be 6a c0 e3 bc
       -0.5862038 1.5328066 -0.36362794 -0.027801711
000220 b4 30 77 be 54 c3 6c c0 bc 1f 72 3f c0 e2 a9 3e
       -0.24139673 -3.699422 0.9457967 0.3318081
000230 82 6f fe 3e 2a 05 e5 3f 37 e9 53 bd c6 f5 a4 3f
       0.4969445 1.7892201 -0.051736083 1.2887504
000240 1e 24 4d c0 7d 90 51 be 70 85 ff bd 6e 34 a4 3e
       -3.2053294 -0.20465274 -0.12476623 0.3207125
000250 f8 3d 8a 3f 40 b6 cf bf 87 d3 97 bf a1 10 6b 3e
       1.0800161 -1.6227493 -1.1861428 0.22955562
000260 b2 ed e8 bf 4a b7 7b bf f5 6a 78 3e 1c c5 ea be
       -1.8197539 -0.9832655 0.24259551 -0.45853508
000270 3e aa d6 bf aa 2e 0c 3f 43 3d da bd 2b bc e5 bc
       -1.6770704 0.54758704 -0.10656216 -0.028043827
000280 e7 c6 1b bf e3 07 89 bf 83 bd c5 3e 12 76 73 be
       -0.60850376 -1.0705532 0.38621148 -0.23775509
000290 9b 5c 63 3f e1 4c a1 3f 93 b4 bb bf 5b 6d e5 3d
       0.8881318 1.2601587 -1.4664482 0.112024985
0002a0 1e 42 a7 bf 7e 4d 97 3e 10 c6 f0 3f 04 15 78 3f
       -1.3067052 0.2955131 1.8810444 0.9690707
0002b0 a0 7d 23 3e b3 22 b5 bf 65 e3 a0 bf 78 ae 71 3e
       0.15965891 -1.4151214 -1.2569395 0.23601711
0002c0 9e cd 06 bf e1 fe 89 3c 85 ac f0 3d ec 2e cb be
       -0.52657497 0.016845169 0.117516555 -0.39684236
0002d0 19 7d 3c 3f 75 fe 79 40 7d f7 ae 3e d6 10 ab bc
       0.73628384 3.9061558 0.34173194 -0.020882051
0002e0 ab b5 fa 3e 6f e8 80 bf b1 65 3a bf d2 f0 05 bf
       0.48966727 -1.0070933 -0.7281142 -0.5232059
0002f0 22 6b c2 3f 37 e4 b7 bd 8e 34 33 3f 60 98 cc be
       1.5188944 -0.089790754 0.7000207 -0.39960003
000300 c7 4f bf 3f e0 7a 01 3f 91 57 58 3f d8 af 32 3d
       1.4946221 0.5057812 0.84508616 0.04362473
000310 1f 66 96 3f 24 ff 28 bf aa 79 33 bf 05 1f d0 be
       1.1749915 -0.66014314 -0.7010752 -0.40648666
000320 c5 18 7b 3f 8b 22 a9 bd 63 fd 0f c0 89 1a 73 3f
       0.9808467 -0.08258542 -2.2498405 0.94962364
000330 43 4b d6 be a5 d2 c2 3f 22 c2 3e bf 9e 2b 53 c0
       -0.41854295 1.5220534 -0.74514973 -3.2995372
000340 97 b3 1e c0 13 80 ef 3f 3b 4a 43 bf 9a 3a 64 3f
       -2.4797113 1.871096 -0.7628514 0.8915192
000350 79 c4 81 bf 06 f8 50 bd 96 85 05 bf d9 34 0f bf
       -1.0138084 -0.051017784 -0.5215696 -0.55940014
000360 58 ad c0 be 11 01 c1 bf 0f 9d b1 bf 01 e8 7f bf
       -0.3763225 -1.507845 -1.3876055 -0.99963385
000370 d9 1e bc 3e 51 44 9a 3f c9 ca 9c be a2 35 b8 be
       0.36742285 1.2052099 -0.30623463 -0.3597842
000380 86 c6 05 40 35 77 bd bf d0 d5 23 bf 5f 0a 11 c0
       2.090242 -1.4802004 -0.63998127 -2.266258
000390 c7 5c 19 be f0 c4 3e 3e eb 77 48 3f a0 6f 17 be
       -0.14976798 0.18629813 0.7830798 -0.14788675
0003a0 07 e4 b1 3e 28 ed 2f bf 87 78 a9 bf 8a fc f0 3d
       0.34744284 -0.68721247 -1.3239907 0.11766918
0003b0 00 c3 cd bf 94 d8 aa be 1a e0 ef 3e 2b c9 dc bf
       -1.6075134 -0.3336836 0.46850663 -1.7248892
0003c0 79 98 4a bf 40 5c 22 40 e7 36 f2 bf 2f 8a d0 be
       -0.79138905 2.5368805 -1.8923005 -0.40730426
0003d0 c5 cf 24 c0 2f fb 18 bf 50 3e 34 be 5b 4b 3b bd
       -2.5751812 -0.59758276 -0.17601895 -0.04572616
0003e0 54 f9 74 3f e5 af 54 be 08 5a da 3d 30 00 80 be
       0.95692945 -0.20770223 0.10661703 -0.25000143
0003f0 32 89 f2 be ee b7 62 3f 6d 27 47 bf c4 2b 27 3f
       -0.47370297 0.88561904 -0.77794534 0.65301156

sequential_1/dense_3_1/BiasAdd/ReadVariableOp:0 f4 [16]
000000 f2 f8 7c 40 d4 6d 96 40 9d 11 83 40 18 b6 72 40
       3.9526944 4.7009068 4.0959 3.7923641
000010 dd c0 03 41 b9 8e 23 40 24 c1 c6 40 bd 35 b5 40
       8.234586 2.555586 6.2110767 5.66281
000020 9b 37 71 40 96 7d e9 40 7d b4 ab 40 66 3e 33 41
       3.769019 7.2965803 5.3657823 11.202734
000030 9e e7 91 40 19 fa 84 40 8f d5 8c 40 25 f6 5d 40
       4.5595236 4.1555295 4.401069 3.4681485

sequential_1/dense_2_1/Cast/ReadVariableOp:0 f4 [64, 32]
000000 36 3e 25 3f 6b e5 fe bf 7d 7b 73 3f df ec 57 bc
       0.6454805 -1.9913763 0.95110303 -0.013179033
000010 45 a4 5f bf 19 a2 90 bf 9b a5 8f bf a8 f6 c0 3f
       -0.8736003 -1.1299468 -1.1222414 1.5075274
000020 5a d5 67 bf 60 36 3e bd 6a fe 95 3f 67 f3 05 c0
       -0.90559924 -0.046438575 1.1718266 -2.092981
000030 3e f4 24 c0 66 e6 0c c0 3a 47 74 3f e4 bf 0b c0
       -2.5774074 -2.2015624 0.95421183 -2.183587
000040 4b ba 65 c0 7a ee 12 3f 3c ae 01 40 5b f4 8d 3f
       -3.5894954 0.57395136 2.0262594 1.1090196
000050 fb bb b3 bf e6 5c d3 bf 60 73 0a 3f c2 80 ac be
       -1.4041742 -1.6512725 0.540823 -0.33691984
000060 74 ea 49 3e 66 3c 21 c0 c5 64 bb bf 25 c6 ce 3d
       0.19718343 -2.5193114 -1.4640127 0.10096387
000070 29 75 e8 bf 5e 2c 9b 3f 12 e2 2f 3f c0 dc e0 be
       -1.8160754 1.2122915 0.6870433 -0.4391842
000080 35 18 b9 3e c6 84 fe 3e 2f b4 fd bf 57 33 18 bf
       0.3615128 0.49710673 -1.9820613 -0.5945334
000090 e6 38 1c c0 d5 4e e3 3e e1 fa eb 3f c1 22 07 bf
       -2.4409728 0.44396082 1.8435937 -0.52787405
0000a0 24 67 98 3f 41 8d ce bf 89 b0 7e bf 9a 62 27 bf
       1.1906476 -1.6136857 -0.9948812 -0.6538483
0000b0 4b 5b d9 bf 84 e9 02 3f 1c 2a 22 bf 69 30 63 3f
       -1.6980985 0.51137567 -0.63345504 0.88745743
0000c0 c0 9c a0 3e af f6 dd 3e 6e a8 96 3f bf 11 64 bf
       0.3136959 0.43352267 1.1770151 -0.8908958
0000d0 1a ee 10 c0 d8 6c 8d bf 08 ba d0 3d 2b 65 b4 bf
       -2.2645326 -1.1048841 0.10191733 -1.4093374
0000e0 82 00 53 3e 35 3b 52 c0 f7 ed 88 bf 1d 72 d7 3e
       0.20605662 -3.2848637 -1.0697621 0.4207925
0000f0 ba 45 d5 bd d5 03 6c be 60 68 36 3f 29 19 89 be
       -0.1041369 -0.23048337 0.71253014 -0.26777008
000100 13 29 e3 3e 54 56 51 c0 39 9b 21 c0 d2 22 b9 bf
       0.44367275 -3.270894 -2.525099 -1.4463751
000110 c3 22 3c bf 1f da 8e be 12 21 a2 bd de 00 03 40
       -0.7349054 -0.27900788 -0.07916464 2.046928
000120 38 c9 b6 bf 18 57 0d 3f 2a 45 ff bf 30 82 06 3f
       -1.4280157 0.5521102 -1.9942982 0.525424
000130 a2 cd a1 3f 30 10 85 bd 59 da 18 bf a8 41 64 bf
       1.2640879 -0.06497228 -0.5970817 -0.89162683
000140 ed c4 88 3e 4e b1 09 c0 3e f8 f9 3e d1 03 4d 3f
       0.26712742 -2.1514468 0.48822206 0.8008395
000150 a0 b7 b5 bf 52 98 88 3d b8 f7 38 c0 d4 16 25 3f
       -1.4196663 0.06669678 -2.8901196 0.6448796
000160 cb 76 3c bf 8c 7d e5 3f 1e 91 e6 bf f2 15 59 3f
       -0.73618764 1.7928939 -1.8013036 0.8479911
000170 96 fb 12 bf 4e 8a 99 bf 2c 43 4a 3f 31 0f 9f bf
       -0.5741514 -1.1995332 0.79008746 -1.2426511
000180 1e 02 b0 3f 60 d2 38 c0 07 f1 52 3f d3 ad 2c be
       1.3750646 -2.8878403 0.8239903 -0.16863184
000190 17 60 c1 3e 4d 1d 19 be eb a9 52 3f 9a ec ee 3d
       0.37768623 -0.14952584 0.82290524 0.11666222
0001a0 e9 fa d3 bf 5b 92 2a 3f f9 30 c0 be 00 86 35 c0
       -1.6560947 0.6662957 -0.37537363 -2.8363037
0001b0 ec bf 8d 3f 27 0c 67 c0 7f 2b 2e 40 ac 75 02 c0
       1.1074195 -3.6101167 2.7214048 -2.0384321
0001c0 eb 61 23 3f da 43 91 3f 97 f5 07 40 dd de ad 3c
       0.63821286 1.1348832 2.1243646 0.021224434
0001d0 e4 ef 62 c0 2c 3e 89 bf 88 73 b2 3e 6b 64 33 3f
       -3.5458918 -1.0722098 0.34853768 0.700751
0001e0 6c ba ba 3e 1f 2a 21 c0 41 6e 91 bf eb 93 b2 3f
       0.36470354 -2.5181959 -1.1361772 1.3951391
0001f0 c9 4e a9 be fc ea b4 be 5a 8d 47 3f b0 6f ca be
       -0.3306792 -0.3533553 0.7795006 -0.39538336
000200 d8 a2 8e bc 3c 5d 04 be a9 3e 58 3e 5a cf 66 be
       -0.017411634 -0.12926191 0.21117653 -0.22540036
000210 d3 1b fa 3e 6f 19 44 c0 02 3c c0 bf 94 9a 0b 40
       0.48849353 -3.0640523 -1.5018313 2.1813097
000220 a8 10 db be 86 04 05 c0 85 7d bd be 6b 00 0a be
       -0.42786145 -2.078401 -0.37009826 -0.13476722
000230 44 c2 30 bf c4 f8 9b 3e 8c dd 1d bd a6 d2 25 be
       -0.69046426 0.3046323 -0.03854136 -0.16193637
000240 10 a7 31 c0 71 fa a0 bf 6b 87 29 c0 30 70 e7 be
       -2.7758217 -1.2576429 -2.6488903 -0.4520278
000250 e6 47 9a 3e 88 2b 34 3f ca 19 64 3f 35 9e fa 3f
       0.3013298 0.70378923 0.8910185 1.9579531
000260 80 d2 02 40 27 c9 80 3f 07 e8 30 3f cc 57 bc 3e
       2.044098 1.0061387 0.69104046 0.36785734
000270 15 f5 61 3e ae 61 d1 be 46 d0 b6 3e 59 fd 8c 3f
       0.22066148 -0.40894836 0.35705775 1.1014816
000280 15 b9 93 3f e8 db 06 bf 23 43 37 3f e3 49 86 3f
       1.1540858 -0.526793 0.7158682 1.0491298
000290 28 9d 14 3e 72 c1 16 3e 3e 2c cf bf c3 ac 6f bf
       0.14513075 0.14722231 -1.6185377 -0.9362299
0002a0 ec 7d 17 c0 c2 ee 8d be 23 ea 94 bf c5 c0 39 3e
       -2.3670607 -0.2772122 -1.1633953 0.18139942
0002b0 20 fb 8e 3f 54 f6 60 c0 42 ee bf 3e 59 69 10 c0
       1.1170387 -3.5150347 0.37486464 -2.25643
0002c0 35 1e e8 bd 2a c2 54 3f 44 db 61 3f 57 4a 44 3e
       -0.113338865 0.8310877 0.882252 0.19168983
0002d0 11 6b 80 bf fd ca e2 be bf c0 56 c0 b0 9c bd be
       -1.0032674 -0.44295493 -3.3555143 -0.37033606
0002e0 03 3b b2 3e 59 b3 9b 3e f5 48 8f bf ff 1d d0 3e
       0.34810647 0.3041027 -1.119414 0.40647885
0002f0 a9 9a 8c 3f 1d 6e 3a c0 61 69 0a bf f0 e9 c7 bf
       1.0984699 -2.9129708 -0.54067045 -1.5618267
000300 75 f7 16 bd d5 5b 15 bf 21 75 cd 3e dd 28 0f 3f
       -0.036857087 -0.5834325 0.40128425 0.5592173
000310 d4 71 3c c0 89 b4 9d 3f c1 cc d0 bf f5 c6 bf bf
       -2.9444475 1.232072 -1.6312486 -1.4982592
000320 f1 57 b7 3f ac 00 d3 bd bd 6c 5b 3f 89 44 29 3f
       1.4323713 -0.103028625 0.85712796 0.661202
000330 5c 67 9b bf 64 a6 c2 bf 6e 68 52 3f 44 c5 59 c0
       -1.2140918 -1.5207028 0.821906 -3.4026651
000340 4e c9 fb bf b9 23 87 3e 31 c5 d6 bd 43 ac 8e 3f
       -1.9670808 0.26394442 -0.1048683 1.114632
000350 f6 08 3e be 80 6f 37 3f ef 79 cf 3f f7 ea 2c bf
       -0.18558106 0.7165451 1.6209086 -0.6754603
000360 2d fc a0 be 38 6c 36 bc f1 6b 68 3f c6 a3 aa bf
       -0.31442395 -0.0111342 0.90789706 -1.333123
000370 b9 d6 67 c0 76 66 2f bf b3 c6 2b bf f0 6d 9b bf
       -3.6224806 -0.6851572 -0.67100066 -1.2142925
000380 9d 92 4f 3f f2 a8 98 3f 97 d7 81 bf f5 e6 25 c0
       0.8108309 1.1926558 -1.0143918 -2.5922215
000390 31 46 39 bf 73 de d8 bf c0 6c 8e bd 47 cc 80 3f
       -0.7237273 -1.6942886 -0.06954336 1.006234
0003a0 86 1f 2a 40 3d db ff 3d a7 ab 8f bf e8 21 b3 be
       2.658174 0.12492988 -1.1224259 -0.34986806
0003b0 f9 09 be be 4b be 54 3f ae e8 0f 3f b7 d7 97 3f
       -0.37116984 0.83102864 0.56214416 1.1862706
0003c0 9f 9b 07 c0 4c 4e a3 3d 0a 4a 83 bf 97 41 1d c0
       -2.1188734 0.07973918 -1.025697 -2.4571283
0003d0 3e 5c f0 3f f3 a5 82 3f d8 09 68 3f 4d dd 90 bf
       1.877815 1.0206894 0.9064002 -1.1317536
0003e0 f8 c3 38 bf 9a 86 63 bf de 1f 39 bb 5c 2f 1f 3e
       -0.72174025 -0.8887726 -0.0028247754 0.1554541
0003f0 3f 42 26 3e c4 a7 89 be cd 09 37 3f 6e 9e 32 be
       0.16236208 -0.26885808 0.7149933 -0.17443249

sequential_1/dense_2_1/BiasAdd/ReadVariableOp:0 f4 [32]
000000 c2 8f 59 c0 d1 37 b2 3f a4 a5 5b bf da 18 69 c0
       -3.3993993 1.3923284 -0.8579962 -3.6421418
000010 40 45 0c 40 bd 80 75 3f c9 fe 68 3f 08 93 c5 3a
       2.1917267 0.95899564 0.9101377 0.0015073726
000020 7a e3 17 c0 27 28 30 be 07 6a dd bf aa cf 4f 3e
       -2.373259 -0.17202817 -1.7297982 0.20294061
000030 a0 92 fe 3f 1a f9 9e bf 81 53 4b bf 6e 76 ab 3f
       1.9888496 -1.241977 -0.7942429 1.3395517
000040 b2 62 50 be 34 1b 91 bf 6b 30 a1 3f 33 97 3d bf
       -0.2035015 -1.1336427 1.2592901 -0.74058837
000050 f4 bf 06 3f 1b ea 7f 3f cc 68 4f c0 08 cd 85 3e
       0.5263665 0.9996659 -3.2407713 0.2613299
000060 be 2e 90 3f 86 40 17 40 d4 1a cb bf 5d 5a 04 40
       1.1264265 2.3633132 -1.5867562 2.0680153
000070 4e 13 8d bd 0e c2 b5 3d 24 e6 19 40 e6 79 70 40
       -0.06888448 0.088749036 2.4046717 3.75744

sequential_1/dense_1_2/Cast/ReadVariableOp:0 f4 [64, 64]
000000 16 5b 02 3f 98 fd e3 bf d4 1e fd bf dc d9 92 bf
       0.50920236 -1.7811766 -1.9775033 -1.1472735
000010 b9 64 32 3f a0 7a cf 3f 2c 78 52 40 c5 4b 3c c0
       0.6968494 1.6209297 3.2885847 -2.9421246
000020 84 88 39 bf 58 a9 e7 bf cd 0b 14 bf 67 52 04 40
       -0.7247393 -1.8098555 -0.57830507 2.0675294
000030 7b a6 ac 3f 5f b7 80 3d cc 93 3b bf c5 24 04 3f
       1.3488306 0.06284975 -0.73272395 0.51618606
000040 c1 2d 3f 3c ab 21 ba 3f 4a e8 04 40 3b f4 a5 3f
       0.011668623 1.4541525 2.0766778 1.2965158
000050 b5 6f bc be fb 19 f3 bf 77 37 6a bf e4 b1 20 3f
       -0.36803976 -1.8992304 -0.9149088 0.6277144
000060 97 71 d1 3f 3a 2c f9 be 9f 09 10 40 2f 97 f9 3e
       1.636279 -0.48666555 2.2505872 0.48748156
000070 b5 65 b7 bf 06 12 46 bf 32 aa 12 bf 7b 99 23 bf
       -1.4327914 -0.7737125 -0.5729095 -0.6390607
000080 9a ae b5 be 9b 28 0e 3f 2d b2 a9 bf 83 ea b3 3f
       -0.35484773 0.5553071 -1.32575 1.4055942
000090 2d 90 ec 3e 77 d1 f9 3e cd 34 18 40 82 66 33 bf
       0.46203747 0.48792621 2.3782227 -0.7007829
0000a0 c2 88 eb be a8 01 a9 3f 59 87 30 3f 99 f8 82 3f
       -0.46002775 1.320363 0.68956524 1.0232116
0000b0 1c 01 d9 3e 71 26 ef 3f 8b 43 51 3d 14 81 9d bf
       0.4238366 1.8683606 0.051089805 -1.2305017
0000c0 28 20 c8 bf 22 9d 55 bf 7b c4 22 40 5e 78 f2 3e
       -1.5634813 -0.8344289 2.5432422 0.47357458
0000d0 26 53 eb 3e 27 cb 87 3f c5 28 ce be fd 41 0a 3e
       0.45961875 1.0608872 -0.4026548 0.13501735
0000e0 75 b0 8b be 45 f8 5b 3f 27 b7 5a 3e 44 e6 01 3f
       -0.27283064 0.85925704 0.2135893 0.5074198
0000f0 c0 e3 48 bf 6c 1c c3 3f 7e 7c a9 bd 2c 6c 3a be
       -0.7847252 1.5243049 -0.08275698 -0.18205327
000100 fa 38 12 bf 37 95 10 bd db 98 8a 3f d5 6a 12 3f
       -0.5711819 -0.035298552 1.0827898 0.5719426
000110 38 59 a2 3f 10 50 ca 3f bc 08 8c bf 00 00 4d c0
       1.2683477 1.5805683 -1.0940166 -3.203125
000120 52 a0 bf 3f e1 8f 99 3f c7 17 d7 bf 90 9f 9e bf
       1.4970801 1.1997033 -1.6804131 -1.2392445
000130 b2 3f 74 3f 21 6e 53 3f c5 e7 a3 be 6c 74 d2 bf
       0.9540969 0.8258992 -0.32012764 -1.6441779
000140 b1 04 e3 be 50 31 1b 3f a8 21 d8 3e f0 91 e7 3f
       -0.44339517 0.6062212 0.42213178 1.8091412
000150 0c 12 37 3f 05 09 23 bf c7 46 ab bf cd 6f fa 3f
       0.7151191 -0.6368564 -1.3380975 1.9565369
000160 a2 a9 38 bd 39 27 86 3f 0a a3 98 bf aa f3 02 3f
       -0.04508365 1.048072 -1.1924756 0.5115305
000170 46 79 e1 bf 89 61 7a bf 07 20 3c 3f 1e c1 53 3e
       -1.7615135 -0.97805077 0.7348637 0.20679137
000180 eb 6a a6 3f e1 f4 98 3f 60 28 6a 3e 43 3b 69 3f
       1.3001379 1.1949731 0.22866964 0.9110605
000190 55 f9 b3 3f 09 8c 30 3e 57 18 6a 3f b2 50 0b 40
       1.4060465 0.17240919 0.9144339 2.1768003
0001a0 3f 2b 8c be 79 e8 e0 bf 51 0c 08 3f d1 71 b7 3f
       -0.27376744 -1.7570945 0.53143793 1.4331609
0001b0 b1 42 94 3f e9 ee 19 bd 0a b1 4c 3f 4c 0a 0e bf
       1.1582853 -0.037581358 0.7995764 -0.5548446
0001c0 71 e4 8d 3f f2 5e c8 3f d7 e9 f7 be c9 c0 ec 3d
       1.108534 1.5653975 -0.48420593 0.11560208
0001d0 e8 3c 0d c0 a7 ae d5 bf 14 08 85 be 5b 35 06 3e
       -2.2068424 -1.6693925 -0.25982726 0.13106291
0001e0 1b ea 05 bf e9 08 af 3f 22 69 3d bf c9 62 a7 be
       -0.5231034 1.3674594 -0.73988545 -0.32692555
0001f0 96 68 80 3f 65 3b fb 3f c6 c8 86 bf 43 5a 81 3f
       1.0031917 1.9627501 -1.0530021 1.0105671
000200 7a 71 c5 bf 1e cc 47 3f 55 18 10 be c4 32 3a 3f
       -1.5425255 0.78045833 -0.14071782 0.7273371
000210 33 a1 9b bf 8f 0d a2 bf 3e 95 4a 3f 8f 39 72 3f
       -1.2158569 -1.2660388 0.79133976 0.9461908
000220 40 87 2c 3d 8c 34 e2 bf dd 43 85 be 62 43 61 bf
       0.042121172 -1.7672286 -0.26028338 -0.87993443
000230 88 23 72 3f f6 0b 21 c0 89 de 34 be 01 ce 1f c0
       0.94585466 -2.516355 -0.17663015 -2.4969485
000240 33 53 93 3f e6 c5 f1 bf 5d 3d 15 c0 68 be aa 3c
       1.1509765 -1.8888519 -2.3318703 0.020842746
000250 10 a8 2e be e1 c2 ea bf 21 16 91 bf 34 f5 fa 3e
       -0.17056298 -1.8340722 -1.1334878 0.490152
000260 b5 ae b2 3f b4 53 bc bf 32 5b 07 3f df 70 ab bf
       1.3959566 -1.4713044 0.5287353 -1.339382
000270 c1 90 32 3e 91 85 4e c0 0f ef f8 be 0a 7c 7c 3c
       0.17438032 -3.2269022 -0.48619887 0.015410433
000280 c4 d5 5c 3e 5e 8c 9d bf 41 b4 40 3f a7 a0 f4 3e
       0.2156592 -1.2308462 0.75275046 0.47778818
000290 40 a5 0b 3f dd 5d a3 bf 18 0a fe be ec 57 11 3d
       0.54549026 -1.276302 -0.49617076 0.03548424
0002a0 05 ec 0a c0 92 22 d9 be ef f0 23 3f e0 3e 7e 3f
       -2.1706555 -0.42409188 0.6403951 0.9931469
0002b0 ff 08 95 be 20 0c 82 3e 38 98 00 40 93 ba 1f c0
       -0.29108426 0.25399876 2.0092907 -2.4957626
0002c0 15 18 2a bf 0c 34 2f bf cc 22 91 be 30 f5 c4 3d
       -0.66442996 -0.6843879 -0.2834686 0.09617078
0002d0 0a a8 08 3f 28 c5 39 bf 73 18 00 3f b5 8b bf bf
       0.5338141 -0.7256646 0.50037307 -1.496451
0002e0 68 ee 4d c0 bd ba 33 3f c7 35 c7 3f b1 e6 e7 3f
       -3.2176762 0.70206815 1.5563287 1.8117276
0002f0 be 20 cf 3f 28 e9 e9 bf 39 b4 ce be ee 37 8f 3f
       1.6181867 -1.8274279 -0.40371874 1.1188943
000300 2c 4b 6c bf 80 4e 3f c0 c3 58 84 3f b0 f5 6a c0
       -0.92302203 -2.9891663 1.0339588 -3.6712456
000310 f3 f7 1c bf da 2d 4a bf 1d 21 4b be b0 25 26 c0
       -0.6131584 -0.78976214 -0.1983685 -2.5960503
000320 57 47 81 be 09 5a 1b c0 87 41 10 c0 09 42 54 be
       -0.2524974 -2.4273703 -2.2539995 -0.20728315
000330 e6 0a 4b bf 07 4d 7c c0 20 67 b4 3d a6 93 e3 3e
       -0.79313505 -3.9422014 0.08808732 0.44448584
000340 8e 0c b4 3f cb 3c 38 3f 0f e4 4d bf 9a e5 0e 3f
       1.4066331 0.7196776 -0.80426115 0.55819094
000350 b6 36 86 bf 54 45 18 3f 40 77 8a 3b d7 ad bf bf
       -1.0485446 0.59480786 0.0042256415 -1.4974927
000360 ef 67 c5 bf f2 b8 46 bf 0d 45 f5 bf 4b 56 61 3f
       -1.5422343 -0.77625954 -1.9161698 0.880223
000370 40 34 34 bf e5 0c bb bf b1 fb b4 be 39 63 08 40
       -0.7039223 -1.461331 -0.35348275 2.131056
000380 a3 f1 ff be f2 e9 00 3f 32 93 bc 3e e1 29 4e be
       -0.49989042 0.5035697 0.3683105 -0.20133163
000390 f2 a2 c3 3f 35 93 29 bd 6b 83 72 3f 47 f0 44 bf
       1.5284102 -0.041400153 0.9473178 -0.76929134
0003a0 89 d5 92 3e f3 77 17 3f 1e 95 c3 be 58 1e 42 3f
       0.2867854 0.59167403 -0.38199705 0.7582755
0003b0 10 1d fb 3e 5d a9 79 c0 69 da 1c 3e 64 6f 43 c0
       0.4904561 -3.900962 0.15317692 -3.0536737
0003c0 ce d8 b0 bf d9 6b 00 3f fa 43 d8 be e7 dc 24 c0
       -1.3816164 0.5016456 -0.42239362 -2.5759828
0003d0 4b 9d f1 bf 33 1c 0e c0 99 e8 e8 bf 56 19 59 c0
       -1.8876127 -2.2204711 -1.8195983 -3.3921714
0003e0 e1 d1 e0 3e bb 81 22 be c2 5d 9f bf 98 28 52 3f
       0.43910125 -0.15869801 -1.2450488 0.8209319
0003f0 ff 8c 6e 3f 35 83 5f bf 02 2f 70 bf 41 89 0f c0
       0.9318389 -0.8730958 -0.9382173 -2.2427523

sequential_1/dense_1_2/BiasAdd/ReadVariableOp:0 f4 [64]
000000 28 af 8c c0 10 10 92 c0 a1 2a 75 bf b9 6e 55 c0
       -4.3963814 -4.5644608 -0.9576817 -3.334883
000010 55 ad 0e c0 ab a7 0e c0 de 40 21 c0 59 9c 98 bf
       -2.2293293 -2.2289836 -2.5195842 -1.1922714
000020 93 bb 7c c0 1b 97 51 c0 92 0b e7 bf b4 03 00 c0
       -3.9489486 -3.2748477 -1.8050406 -2.000226
000030 34 42 07 c0 d5 eb 0c c0 fa 8a ab bf 2b 6b 9a c0
       -2.1134157 -2.201894 -1.3401787 -4.825582
000040 06 28 2f c0 d8 e1 a7 bf 44 d4 2a c0 e1 ce 46 c0
       -2.7368178 -1.3115797 -2.6692057 -3.106377
000050 37 35 5f be 37 ac 1c c0 db 0a 41 c0 08 e8 9c bf
       -0.21797644 -2.4480112 -3.0162876 -1.225831
000060 2f 63 c7 bf 7f 25 1c c0 99 27 0c c0 4c c3 8f c0
       -1.5577143 -2.4397886 -2.1899168 -4.49259
000070 fb 95 85 c0 fc 5a 3f c0 80 19 94 bf fc 6a 54 c0
       -4.174558 -2.9899282 -1.1570282 -3.3190298
000080 6b 76 45 bf 3d 56 44 c0 a5 bf aa 3e 16 e9 3d 3f
       -0.77133816 -3.0677636 0.33349338 0.74183786
000090 ee de a0 bf af 41 13 c0 9f 21 88 c0 3e e8 8e c0
       -1.2568033 -2.300884 -4.254104 -4.46585
0000a0 6d ba 5b c0 dd ec 4a c0 12 e9 77 c0 2f 5d b6 c0
       -3.4332535 -3.170707 -3.8736005 -5.698875
0000b0 dc 88 92 c0 46 95 d4 be 76 63 82 bf f8 49 ce bf
       -4.5792065 -0.41520137 -1.0186603 -1.6116323
0000c0 64 1e b0 c0 6d 49 87 c0 7b e0 4c c0 4a c8 85 c0
       -5.50371 -4.227713 -3.2012012 -4.1806993
0000d0 20 17 dc bf 3b 80 fc bf aa 53 05 c0 33 b8 59 bf
       -1.7194557 -1.9726633 -2.0832314 -0.8504669
0000e0 0b 33 7b c0 5c 70 f2 bf c0 3d 92 c0 6f 3d 4c c0
       -3.9249904 -1.8940539 -4.570038 -3.1912496
0000f0 27 fe 77 be ec d8 a5 c0 30 48 4a c0 69 f3 a6 3d
       -0.24218045 -5.1827297 -3.160656 0.081518956

sequential_1/dense_1/Cast/ReadVariableOp:0 f4 [12, 64]
000000 8d bb 9a 3f 54 1a 0c bf 4a 58 83 3f 54 1a 80 bd
       1.2088486 -0.54727674 1.0261319 -0.06255022
000010 0b d8 84 3f c0 95 94 3f 5c 67 01 c0 b9 ad 39 3e
       1.0378431 1.16082 -2.0219336 0.18132676
000020 12 2f ac be 9a 5c 2b 3f e8 54 7f 3f c5 e8 37 40
       -0.33629662 0.66938174 0.9973893 2.8735821
000030 fd 22 1b bf a9 f6 1a bf f0 c3 f2 3d 08 84 b0 3f
       -0.6060026 -0.60532624 0.11853778 1.3790293
000040 5b 85 96 bf 70 4a 36 bf ef 6b a6 3f 0e 24 32 3f
       -1.1759447 -0.7120733 1.3001689 0.69586265
000050 82 04 3f c0 16 66 6e 3e aa 25 fb 3e 98 c0 78 bf
       -2.9846501 0.2328113 0.49052173 -0.97168875
000060 bd e6 78 bd 6d 66 1d bd 55 e2 27 bf d8 36 73 3f
       -0.060766924 -0.03842776 -0.6557973 0.9500556
000070 83 64 b9 3f af 0e c4 3e 3f 49 90 bd af f4 f5 bf
       1.4483799 0.38292453 -0.070452206 -1.9215297
000080 78 d0 01 c0 0d 91 8d be 7b 1a 06 40 e2 30 6e 3f
       -2.028349 -0.27649727 2.0953662 0.9304334
000090 e4 2f 11 3f 71 2f 91 3f 02 45 a3 3f 64 a9 f2 be
       0.567137 1.1342603 1.2755435 -0.4739486
0000a0 13 93 f1 3f f4 41 45 40 05 5b 55 3f d7 ca a6 3e
       1.8873008 3.0821505 0.8334201 0.3257663
0000b0 90 14 c3 bf d2 6c c8 be 5c 7e 11 be 24 82 cb 3e
       -1.524065 -0.39145523 -0.14208359 0.39747727
0000c0 37 ad b9 bf 24 b5 a1 be 7b b3 c7 3f 17 2c b2 3f
       -1.4505986 -0.31583512 1.5601648 1.3919705
0000d0 a4 78 06 be 75 14 23 40 67 06 45 40 a3 d7 35 3e
       -0.13131958 2.5481236 3.0785158 0.1775804
0000e0 86 d7 1d c0 db 62 38 3f 09 55 a3 bf 75 72 d5 be
       -2.4662795 0.7202584 -1.2760326 -0.41688886
0000f0 bf f2 7c 3f 8b fb d6 3d 04 2d 95 3f 3f bd e6 3f
       0.988079 0.10497197 1.1654363 1.8026503
000100 26 31 45 40 d9 a6 8d 3d d7 de dc 3f 53 0a 97 bf
       3.0811248 0.06916589 1.7255505 -1.1800026
000110 c3 36 28 40 4a d6 46 bf e6 88 0f 3d 95 04 cd 3d
       2.6283424 -0.7767073 0.035042666 0.100106396
000120 46 85 07 bf 84 ec 56 bd 06 86 3f bf 11 7c 8c 3c
       -0.52937734 -0.052471653 -0.7481388 0.017149003
000130 a5 3e 3b be a9 fd 7f 3f e4 32 08 3f 19 da 7b 3f
       -0.18285616 0.9999643 0.5320265 0.98379666
000140 b0 f1 88 bf ac 4f 4c 40 ca 37 83 3f ed 0b 0b c0
       -1.0698757 3.1923628 1.02514 -2.172603
000150 80 43 0f 3e 41 88 e2 3e c8 8b 5a 3f 28 0d 91 bf
       0.13990593 0.44244578 0.8536954 -1.133214
000160 bc 1e 24 40 7c 5f b2 3d ab 20 bd bf dc 92 aa bf
       2.5643759 0.087096184 -1.4775594 -1.3326068
000170 56 d4 37 bf b8 1b c8 3e cb 1f 9e bf 12 33 bd 3f
       -0.71808374 0.39083648 -1.2353452 1.478121
000180 08 1e d3 be 71 52 23 bd 36 20 76 3f 65 29 ad 3f
       -0.4123385 -0.039873544 0.961429 1.3528258
000190 e6 e5 76 3e 1e 4d 5e 3f 19 9e a9 3e dc 3c 17 3f
       0.24111137 0.8683642 0.3312843 0.5907724
0001a0 1d 43 42 bf d5 e3 02 3f 7e 40 73 be 26 df cf bd
       -0.75883657 0.51128894 -0.2375507 -0.10149984
0001b0 d6 aa d5 3f 8b 91 83 3e 1a 05 cb 3e 2b e8 2d 40
       1.669276 0.25696978 0.3965233 2.7172954
0001c0 73 30 9f 3f ac f2 84 3f 02 58 bf bf 23 9a 0e c0
       1.243666 1.0386558 -1.4948733 -2.2281578
0001d0 ae d1 11 c0 d1 93 01 40 1c 5b 7a bf 84 13 f5 bf
       -2.2784228 2.024647 -0.9779527 -1.9146581
0001e0 0a 88 19 3e 63 71 5a c0 c5 0e 26 bf 2a e6 fb 3e
       0.14993301 -3.4131706 -0.64866287 0.4919904
0001f0 76 f0 ba bf b6 96 03 bf 73 f5 95 bf 94 63 60 bb
       -1.4604633 -0.5140184 -1.171553 -0.003423904
000200 32 96 cd be 61 8d 8f bf 6d 1b bd be 3a bd 60 3f
       -0.40153652 -1.121502 -0.36934987 0.87788737
000210 c6 cf 10 bf 7a 68 83 3e bc 05 4d bf df a3 c5 3d
       -0.5656704 0.25665647 -0.80086875 0.096503966
000220 e7 8b 08 c0 14 10 b4 c0 12 c6 76 3e 07 b1 a9 be
       -2.133539 -5.6269627 0.24098995 -0.33142874
000230 55 61 96 bf c5 90 7b 3f 70 11 24 40 15 98 34 3f
       -1.1748453 0.98267776 2.5635643 0.7054456
000240 4a 3e 11 40 74 f2 2f 3e db dc 22 be 57 11 49 3f
       2.2694268 0.17182332 -0.15904562 0.78542084
000250 cf d5 be be ef ac 41 bf 18 a4 d6 3f ac 80 4c 3d
       -0.37272498 -0.756545 1.6768827 0.0499274
000260 34 66 2a be 83 0c 31 be e8 d9 94 3f 2c cb e1 3f
       -0.1664055 -0.17289929 1.1629 1.7640128
000270 7e 8d aa 3f 56 13 00 bd 81 54 1d bf da 11 d5 3e
       1.332443 -0.03126844 -0.6145707 0.41615182
000280 90 18 2f bf b4 a4 fe 3e be 35 8c 3f 32 41 55 3e
       -0.68396854 0.49735034 1.0953901 0.20825651
000290 70 80 88 bf 71 8e 15 40 10 2c fc bf f4 44 8f 3e
       -1.0664196 2.336819 -1.9700947 0.27982295
0002a0 4c f9 8a 3f a1 9a 1f bf 7b 76 bf bc 6b 76 8e 3f
       1.0857329 -0.6234532 -0.023371926 1.1129888
0002b0 59 3a 0b 3f d5 4d ae bf 66 d6 5f 3e 30 26 6c bf
       0.54385906 -1.3617502 0.2185913 -0.9224577
0002c0 42 91 46 bd c5 36 8c be 65 e9 81 3f 33 9f eb bf
       -0.048478372 -0.27385536 1.0149351 -1.8407959
0002d0 92 75 2b be 7d 68 c0 3e 96 cc f0 3f 0e 83 8c bf
       -0.16744068 0.37579718 1.8812435 -1.0977495
0002e0 e4 ed 1a c0 f2 10 6b 3c c1 25 82 bd 86 95 1d 3f
       -2.4207697 0.014347302 -0.06354857 0.6155628
0002f0 4e 1b 6d bf 21 fc c2 3e 98 68 0a c0 4c fe a2 bf
       -0.9261979 0.38082984 -2.162634 -1.2733855
000300 56 56 be 3f 0e 38 ae 3e f9 5b 28 bf f6 7c e6 3f
       1.4870098 0.3402714 -0.6576534 1.8006885
000310 b1 8c 12 c0 2d 3e 07 c0 3e 05 a6 3d 52 d8 1f be
       -2.2898371 -2.11317 0.081064686 -0.15609863
000320 50 f8 38 bf e9 6b 52 3f e4 87 0e 3f 6b 99 46 3f
       -0.72253895 0.8219591 0.556761 0.7757785
000330 95 da a2 3f 97 64 86 bf 80 cd 73 3f 36 3c a9 bf
       1.2722956 -1.0499448 0.95235443 -1.32215
000340 2d 9a b3 bd 2d f9 d0 bf 15 f1 56 3e 47 af 6e 3e
       -0.08769641 -1.6326042 0.20990403 0.2330905
000350 47 66 85 be 40 48 4c 3f 76 68 bb bf b4 0f 02 3f
       -0.26054594 0.79797745 -1.4641254 0.5080521
000360 ac cd a6 3c d8 dc 01 3f 49 4d 30 3f c9 99 e5 bf
       0.020361744 0.50727606 0.6886793 -1.7937557
000370 d7 17 f6 be da 23 03 bf a3 15 ee 3f ec 7a b9 bc
       -0.48065063 -0.5122658 1.8600353 -0.022641622
000380 6c 1c 8e be ed 2b 9a bf 00 a6 78 be be b3 a8 bf
       -0.2775606 -1.2044655 -0.24282074 -1.3179853
000390 d3 13 ce 3f 8d 53 0e 40 a2 b6 93 bf 59 ff 6c bf
       1.60998 2.2238495 -1.154011 -0.9257713
0003a0 8d c4 ff 3f f4 2c d3 3d 80 74 79 40 3f 67 28 be
       1.9981858 0.103113085 3.8977356 -0.16445635
0003b0 6f af b6 be 4e 63 40 3f 42 6c ee 3e e6 b3 a1 bf
       -0.3568072 0.75151527 0.4656697 -1.2633026
0003c0 20 9a 38 bf e5 0b 27 c0 11 6e 30 3f 96 cf b3 be
       -0.72110176 -2.610101 0.6891795 -0.35119313
0003d0 1d 91 4b 3f d4 86 d9 bf ef 2d f5 3f e7 65 1b 40
       0.795183 -1.6994271 1.9154643 2.4280946
0003e0 c6 45 5a 3e e1 25 02 3f b8 4d 00 3f 3d 14 ce 3f
       0.21315679 0.5083905 0.5011859 1.6099926
0003f0 5a e2 dc 3f 06 12 7d 3d ec 52 10 40 c6 8e de bf
       1.7256577 0.061784767 2.2550611 -1.7387321

sequential_1/dense_1/BiasAdd/ReadVariableOp:0 f4 [64]
000000 64 00 26 c0 15 21 b4 bd 8f 7f a6 3f dd 76 29 c0
       -2.5937738 -0.087953724 1.3007678 -2.6478798
000010 7c e9 82 bf bf 0f 91 3e 57 2d 3a c0 bc ba 9b bf
       -1.0227504 0.28332326 -2.9090173 -1.2166362
000020 b6 43 26 3f b8 8c 2a c0 62 2e d9 be 3b 02 0e c0
       0.6494707 -2.6648388 -0.424182 -2.2188861
000030 b7 69 53 c0 39 c4 da bf 1e b9 7b 3f b3 4f 20 3f
       -3.3033273 -1.7091132 0.9832934 0.6262161
000040 19 11 4c bf ee 53 6b bf 3f 4c 35 c0 4f 37 99 c0
       -0.7971359 -0.9192494 -2.8327787 -4.7880015
000050 0d 4e d8 bf 50 94 05 3e 22 a5 d9 bf d7 fc 7a c0
       -1.6898819 0.13044858 -1.700352 -3.9216821
000060 2b 7e 97 c0 34 ab 25 bf 32 68 54 c0 ad 56 09 c0
       -4.7341514 -0.6471436 -3.3188596 -2.1459153
000070 4c 59 2e 3f 1b 82 8d 3e 51 32 7f bf 1e 9f 79 c0
       0.68105006 0.27638325 -0.9968615 -3.9003367
000080 80 ff 57 3f cf 17 ed bf 02 0f 12 bf 39 c2 54 c0
       0.8437424 -1.8522891 -0.5705415 -3.3243544
000090 2b f7 13 c0 3d c5 02 c0 33 a3 3c 3f 10 a9 75 c0
       -2.311961 -2.0432885 0.7368652 -3.8384438
0000a0 76 c0 27 bf 10 18 84 bf 82 4f 2c bf 5b b9 11 c0
       -0.6552805 -1.0319843 -0.6730882 -2.2769382
0000b0 19 66 71 be 2c fa 2c bf 5d 1b 92 c0 73 82 41 bf
       -0.23574103 -0.6756923 -4.5658402 -0.75589675
0000c0 30 9a 20 40 a0 d4 13 c0 32 38 40 3f e0 c5 eb bf
       2.5094109 -2.3098526 0.7508575 -1.8419762
0000d0 33 5a 66 c0 23 23 2b c0 33 36 a8 bf 0f 38 82 bf
       -3.5992553 -2.6740196 -1.314154 -1.0173358
0000e0 f7 b8 d0 3f 82 91 0b c0 ca 95 94 c0 6a 54 7e be
       1.6306447 -2.180756 -4.643285 -0.24836889
0000f0 b5 f8 ce bf 90 d6 74 bf d2 49 b4 bf 83 57 e8 bf
       -1.6169649 -0.95639896 -1.4085028 -1.8151706

sequential_1/batch_normalization_4_1/batchnorm/sub:0 f4 [16]
000000 f6 f0 68 be 44 65 92 be 69 c7 8c be d0 2e 7a be
       -0.2274817 -0.28592885 -0.27495888 -0.2443192
000010 03 8b 9e be a0 7b 74 be 06 15 b6 be 34 0e 92 be
       -0.30965433 -0.23875284 -0.35562915 -0.2852646
000020 2e c2 8f be a9 1e 06 bf 5c cc d2 be 3d ad 46 bf
       -0.28077835 -0.52390534 -0.4117154 -0.7760809
000030 c8 e9 99 be 78 ab 9f be 9c 1f b0 bd cf 65 a7 be
       -0.30061173 -0.31185508 -0.08599779 -0.3269486

sequential_1/batch_normalization_4_1/batchnorm/mul:0 f4 [16]
000000 3a 65 5d 3d 20 4a 52 3d 79 9b 3f 3d 72 b1 5f 3d
       0.054051615 0.051340222 0.04677913 0.054612584
000010 e8 3e 32 3d 08 ee 56 3d 8d d2 56 3d 7a eb 2b 3d
       0.043517023 0.052473098 0.05244689 0.041972615
000020 cc 40 51 3d 04 b8 60 3d 75 43 33 3d 83 2c 67 3d
       0.051087186 0.05486299 0.043765504 0.056438934
000030 b6 06 5d 3d 37 07 31 3d 82 d6 45 3d 08 87 24 3d
       0.05396148 0.04321977 0.048300274 0.04016784

sequential_1/batch_normalization_3_1/batchnorm/sub:0 f4 [32]
000000 45 53 21 bf 94 3c 83 bf 05 d8 82 bf ae 73 2a bf
       -0.63017684 -1.0252862 -1.0222174 -0.66582763
000010 9b 75 4a bf 10 54 a4 bf 22 ad 21 bf ce b6 48 bf
       -0.790857 -1.2838154 -0.63154805 -0.7840394
000020 49 8e f6 be f9 07 5a bf 68 d7 3d bf 0a d0 76 bf
       -0.4815543 -0.85168415 -0.7415681 -0.9641119
000030 f0 68 4f bf 1a ef 65 bf 84 e6 40 bf 69 6a 34 bf
       -0.81019497 -0.89817965 -0.7535174 -0.7047487
000040 e9 09 77 bf 26 c5 4b bf 02 74 68 bf 64 16 01 bf
       -0.96499497 -0.795977 -0.90802014 -0.5042479
000050 d0 e6 5b bf 3d d3 80 bf 1d 0d 1b bf 51 fd 20 bf
       -0.85899067 -1.0064465 -0.60566884 -0.6288653
000060 f1 c2 05 bf 06 4b 94 bf e5 46 3e bf b4 64 5c bf
       -0.5225058 -1.1585395 -0.74326926 -0.8609116
000070 c3 92 68 bf 78 b3 e6 be 2e d1 63 bf 0d 6f 30 bf
       -0.9084894 -0.450588 -0.8899106 -0.6891945

sequential_1/batch_normalization_3_1/batchnorm/mul:0 f4 [32]
000000 02 d0 a4 3d b0 61 a7 3d 23 0d 87 3d 8e 73 9d 3d
       0.08047487 0.08172929 0.065943025 0.07688056
000010 b1 89 9f 3d 8a 08 b6 3d fa a6 e7 3d 1f 29 a8 3d
       0.077899344 0.088883474 0.11311145 0.08210968
000020 49 70 db 3d 28 46 94 3d 9f a9 c2 3d f0 43 95 3d
       0.10714776 0.07239944 0.09505009 0.07288349
000030 07 e2 a3 3d 17 51 d3 3d 7c 6b 8b 3d 88 b2 a1 3d
       0.08002096 0.10318201 0.068076104 0.0789538
000040 9d 58 82 3d 04 24 78 3d c5 d3 91 3d 3b b6 cf 3d
       0.06364558 0.060581222 0.0712047 0.101421796
000050 11 1f c7 3d 0a 06 91 3d c2 0e a5 3d 2f fd 72 3d
       0.09722722 0.0708123 0.080594555 0.059323486
000060 c7 91 8d 3d d0 c9 ab 3d 10 96 a9 3d 29 fc 97 3d
       0.069125704 0.08388102 0.08280575 0.074211426
000070 70 f7 8a 3d ec b8 ec 3d e3 97 7f 3d 38 28 a7 3d
       0.06785476 0.115587085 0.06240071 0.08161968

sequential_1/batch_normalization_2_1/batchnorm/sub:0 f4 [64]
000000 d9 12 07 bf 35 59 3c bf e2 f4 2b bf 40 64 29 bf
       -0.52763134 -0.7357362 -0.67170537 -0.66168594
000010 e1 5c 08 bf 6c bd ec be 2a b0 ef be 5e 03 93 bf
       -0.5326672 -0.46238267 -0.4681409 -1.1485403
000020 0a 3d 17 bf c2 b8 1f bf d2 ea 8f bf 02 f7 78 bf
       -0.59077513 -0.62391293 -1.1243536 -0.97251904
000030 b0 28 dc be b2 03 c7 be 29 ab ce bf a9 b2 c6 be
       -0.42999792 -0.38870007 -1.6145984 -0.38808182
000040 5e 67 10 bf c3 4f 62 bf 12 9f 20 bf aa 24 10 bf
       -0.56407726 -0.88402957 -0.6274272 -0.56305945
000050 84 17 6e bf a8 06 79 bf 25 cc 50 bf 5e 03 8f bf
       -0.9300463 -0.9727578 -0.815615 -1.1172903
000060 ca af e7 be d4 49 59 bf 46 f9 06 bf e2 83 e0 be
       -0.45251304 -0.8487828 -0.5272411 -0.4385062
000070 09 48 e9 be 46 fc 41 bf ee 1b 33 bf 97 a2 79 bf
       -0.4556277 -0.75775564 -0.6996449 -0.9751372
000080 b2 e3 d0 be 3c 33 76 bf be 03 30 bf aa 2b f9 be
       -0.40798718 -0.9617193 -0.6875571 -0.48666126
000090 54 96 9d bf 9f 8c 94 bf f0 6c 59 be 8a 4c 14 bf
       -1.2311502 -1.1605414 -0.21232963 -0.5792929
0000a0 72 fc 6d bf 8f 10 6c bf d0 52 05 bf 38 b8 20 be
       -0.92963326 -0.92212766 -0.52079487 -0.15695274
0000b0 48 db 4f be ec 2e 22 bf 52 3b 07 bf 12 21 5d bf
       -0.20298493 -0.6335285 -0.5282489 -0.86378586
0000c0 de 43 5b bf e6 02 4d bf b6 7d c9 be 52 f5 e2 be
       -0.8565043 -0.8008255 -0.39353722 -0.4432779
0000d0 60 df 20 bf 29 ca 3a bf 43 6b 3e bf 34 95 45 bf
       -0.62840843 -0.7296472 -0.7438242 -0.7718079
0000e0 91 a4 6d bf 97 e3 16 bf 62 df 35 bf 63 80 37 bf
       -0.92829233 -0.58941025 -0.7104398 -0.7168028
0000f0 68 df e8 be b0 10 a6 be 54 2b 22 bf 7c 9b 05 bf
       -0.45482945 -0.32434607 -0.63347363 -0.52190375

sequential_1/batch_normalization_2_1/batchnorm/mul:0 f4 [64]
000000 9b 4e 90 3e 68 16 27 3e 85 80 78 3e 89 2e 24 3e
       0.2818497 0.16317141 0.24267776 0.16033377
000010 27 f3 44 3e 6b 89 26 3e 4d 25 1e 3e ab ec 07 3e
       0.1923338 0.16263358 0.15443917 0.13273875
000020 2d 05 31 3e 7d 55 4c 3e 07 a8 42 3e cf 22 38 3e
       0.1728713 0.19954486 0.1900941 0.17982028
000030 5a ef 25 3e 99 37 a4 3e 89 5f fa 3d 90 56 dc 3e
       0.16204587 0.32073668 0.12225253 0.43034792
000040 e7 0a 51 3e e6 d3 82 3e fa 66 95 3e b7 11 61 3e
       0.20414315 0.2555229 0.29180127 0.21979414
000050 9a dc 24 3e 40 2a 0b 3e 26 96 21 3e be bf 36 3e
       0.16099778 0.13590336 0.15779933 0.17846581
000060 62 37 21 3e e9 e4 5a 3e 4e 3c a7 3e ec c0 85 3e
       0.15743783 0.21376385 0.32663196 0.2612375
000070 d7 f4 63 3e f4 3e 4b 3e b7 cb 30 3e c0 99 3b 3e
       0.22261368 0.19848233 0.17265211 0.1832037
000080 e8 3a 3a 3e ed 04 25 3e ab 8e 66 3e 4f a4 f7 3d
       0.18186533 0.1611516 0.22515361 0.12091886
000090 ee f0 ff 3d 89 ee 24 3e 81 2b 52 3e 6f c0 62 3e
       0.124971256 0.16106619 0.20524408 0.2214372
0000a0 c3 1e 61 3e 6d b1 42 3e 39 45 80 3e 83 a8 85 3e
       0.21984391 0.19012995 0.25052813 0.26105127
0000b0 c1 3a 23 3e bd 1b 38 3e 77 2b 45 3e 0c 12 27 3e
       0.15940382 0.17979331 0.19254862 0.16315478
0000c0 8d cd 6c 3e 33 9f 35 3e 74 49 68 3e be 19 58 3e
       0.23125286 0.17736511 0.2268427 0.2110357
0000d0 42 e3 57 3e 64 2b 35 3e 20 a4 4e 3e 8d 51 24 3e
       0.21082786 0.17692333 0.20179796 0.16046734
0000e0 f0 66 64 3e c9 c5 45 3e 94 e9 94 3e 19 f2 40 3e
       0.22304893 0.1931373 0.29084456 0.18842353
0000f0 53 c6 36 3e 20 ae 85 3e 59 b1 56 3e 53 bb 53 3e
       0.17849092 0.2610941 0.2096609 0.20676927

sequential_1/batch_normalization_1_2/batchnorm/sub:0 f4 [64]
000000 4a af 86 bf 4c f2 65 bf 67 7d 4a bf 50 30 6d be
       -1.0522244 -0.8982284 -0.790976 -0.23162961
000010 04 f3 f3 be 8c 56 76 be 42 67 fb be 36 bf 50 c0
       -0.47646344 -0.24056453 -0.49102217 -3.2616706
000020 9b d0 5c bf c8 0d 49 bf b6 8c a6 bf 6c 14 da be
       -0.86255807 -0.78536654 -1.3011692 -0.42593706
000030 a0 f0 2d 3c 60 a7 83 bc 82 11 2f bf 30 41 10 bf
       0.0106164515 -0.016071022 -0.6838609 -0.5634947
000040 37 a6 51 bf 7f fc 0b bf 5f d8 ca bf bb f3 1a bf
       -0.8189425 -0.54682153 -1.5847281 -0.60528153
000050 1b be 46 bf 06 f4 54 bf 26 69 dc be 9e 7f d6 bf
       -0.7763383 -0.8318485 -0.43048972 -1.6757696
000060 66 b6 bb bf bc 78 1b bf 26 9f 92 be 1c 9f d7 bf
       -1.4665039 -0.607311 -0.28637046 -1.6845431
000070 9e 27 1e bf f8 a0 1b c0 92 be 80 bf 24 e6 d7 be
       -0.617792 -2.4316998 -1.0058157 -0.4216777
000080 5e af df bf 4a cb da be 7c af e9 be 40 bd 1e be
       -1.7475393 -0.42733222 -0.45641696 -0.1550188
000090 ad 03 0d bf 06 fc a6 be 12 e5 c1 bf ee 59 f8 bf
       -0.55083734 -0.32614154 -1.5148032 -1.9402444
0000a0 ba ed fb be 9a c1 31 bf 3c 1c b8 bf cf c9 60 bf
       -0.49204808 -0.6943604 -1.4383616 -0.87807935
0000b0 22 2b 7e bf 93 ac 7a bf b9 d9 24 bf d5 77 16 bf
       -0.99284565 -0.9791958 -0.6439472 -0.587766
0000c0 fa e5 49 bf 12 fb e2 be 53 3a 24 bf 5e 7d 03 bf
       -0.7886654 -0.44332176 -0.64151496 -0.5136317
0000d0 42 38 96 bf e2 11 07 bf 1b c4 47 bf 71 33 19 bf
       -1.1735919 -0.5276166 -0.7803361 -0.5984412
0000e0 10 0b 7b bf 20 80 d4 bf d1 08 24 bf 9c 9c 7d be
       -0.98063755 -1.6601601 -0.6407595 -0.24766773
0000f0 ea 2f af be ee 18 d6 bf 51 f9 0d bf 58 8e 7b bf
       -0.34216243 -1.6726358 -0.5545855 -0.98264074

sequential_1/batch_normalization_1_2/batchnorm/mul:0 f4 [64]
000000 b8 9a a9 3f b6 23 fe 3e 4d 9a 44 3f eb 9d f5 3f
       1.3250341 0.4963662 0.76797944 1.9188818
000010 c4 c1 50 3f b7 c5 0a 3f 70 f6 c9 3f 87 28 42 3f
       0.8154566 0.5420794 1.5778332 0.7584309
000020 6b ec 04 3f d4 a2 6f 3f 18 8e 0f 3f 7a d1 bf 3f
       0.51923245 0.9360783 0.5607619 1.4985802
000030 d2 36 ac 3f e1 56 2d 3f e1 0f 59 3f 20 10 2a 3f
       1.345423 0.6771069 0.84789854 0.66430855
000040 04 d0 3c 3f 87 1a 9a 3f 89 75 57 3f 90 79 c9 3f
       0.73754907 1.2039346 0.8416372 1.5740223
000050 82 cb 53 3f f3 0d 16 3f 3e e4 81 3f e5 69 03 3f
       0.82732403 0.58615035 1.0147779 0.5133346
000060 4b 68 c0 3f 07 69 2b 3f 8a 4e 32 40 b0 23 d0 3e
       1.5031828 0.66957134 2.7860436 0.40652227
000070 04 f6 11 3f b6 c8 0f 3f a9 89 4b 3f a7 44 a1 3f
       0.57016015 0.56165636 0.7950693 1.2599076
000080 7f cd 0a 3f 9e 57 48 3f 34 70 26 3f 85 43 3d 40
       0.5421981 0.78258693 0.6501496 2.957246
000090 ad a2 a8 3f 70 04 cc 3f a3 2e 1c 3f 25 92 a3 3f
       1.3174645 1.5938854 0.6100866 1.2778975
0000a0 5c ef 59 3f 9d 69 5a 3f 8c 74 63 3f e3 6b 2d 3f
       0.8513086 0.85317403 0.8884971 0.6774275
0000b0 d2 a9 15 3f 9d 68 6f 3f 1c b9 a4 3f ce 3e 20 3f
       0.5846225 0.93519 1.2868991 0.6259583
0000c0 3b c0 e6 3e c4 19 80 3f 6d c5 81 3f 25 81 0d 3f
       0.45068535 1.0007863 1.0138375 0.55275184
0000d0 db 79 05 3f 5c a0 9d 3f b9 6a 64 3f 50 e6 bf 3f
       0.5213906 1.2314563 0.89225346 1.4992161
0000e0 8b ae e7 3e c7 35 2c 3f 59 22 a7 3f f3 6c 2d 3f
       0.45250353 0.6726956 1.3057357 0.6774437
0000f0 28 21 2f 3f 57 89 1a 3f b6 07 6e 3f 0a f6 45 3f
       0.6840997 0.60365814 0.92980516 0.7732855

sequential_1/batch_normalization_1/batchnorm/sub:0 f4 [12]
000000 e5 ac c3 be 42 0f 92 be 3d 34 10 bd c2 5d 05 bf
       -0.38217846 -0.28527266 -0.03520607 -0.5209619
000010 b1 f9 60 be f9 6f 6c 3f d6 5f 5b 3e 98 9f 35 3f
       -0.2197025 0.92358357 0.21423277 0.70946646
000020 6a 4d 73 be 95 39 60 be a8 cd 30 3e 9c 49 a3 bd
       -0.2376 -0.21896966 0.17265952 -0.07973024

sequential_1/batch_normalization_1/batchnorm/mul:0 f4 [12]
000000 c6 0a d2 3f be c9 fa 3f 52 17 6a 3f b3 07 d0 3f
       1.6409538 1.9592817 0.91441834 1.625235
000010 03 9b 54 3f 12 b1 1f 40 66 77 e4 3f 48 b0 e4 3f
       0.8304903 2.4951825 1.7848938 1.7866297
000020 06 07 5b 3f 8c af ac 3f 6c 1e 85 3f 1b d1 6c 3f
       0.8555759 1.3491073 1.0399909 0.9250657
